app/src/main/ml/squat.tflite (tflite, 44692 bytes, 6 tensors)

sequential/dense_1/BiasAdd/ReadVariableOp f4 [32]
00000000: 9e7c 0abb 0000 0000 e566 85bc 1aa8 ceba
00000010: f0c1 e13a 0000 0000 b4b7 cd3a 757b ce3a
00000020: fbdd cdba 5ebc d0ba 0000 0000 d576 ccba
00000030: a2fb 243c 1e4f 973b 490b caba 2b7d 4f3b
00000040: 0000 0000 7f75 bf3a 560f ba3a a4e4 c2bb
00000050: 0000 0000 b041 c53b d0f6 6a3b 0000 0000
00000060: 9bf9 173d 339e bf3a b808 8dbb 5d97 d1ba
00000070: b81f dcba 0000 0000 677b 4cbc bbe4 9e3b
-0.0021131407 0.0 -0.016284415 -0.0015766651 0.0017223936 0.0 0.0015695007 0.0015753346
-0.0015706414 -0.0015925278 0.0 -0.001559938 0.01006976 0.004617586 -0.001541474 0.00316603
0.0 0.001460716 0.0014195244 -0.0059476662 0.0 0.0060197935 0.0035852678 0.0
0.037103277 0.0014619291 -0.004304018 -0.0015990544 -0.0016794121 0.0 -0.012480593 0.004849044

sequential/dense_2/BiasAdd/ReadVariableOp f4 [2]
00000000: 5775 cdba 5775 cd3a
-0.0015675229 0.0015675229

sequential/dense/BiasAdd/ReadVariableOp f4 [64]
00000000: 0000 0000 998d 3b3b 0000 0000 0000 0000
00000010: 646c 0bbb 62b9 8cbb f769 833b 53ef 663b
00000020: 8a89 7ebb 0000 0000 df45 043b 0000 0000
00000030: 49ba ae3a 86a8 243c 0000 0000 0000 0000
00000040: 55af 6abb 711b 333c 1210 83bb 0000 0000
00000050: 0000 0000 0000 0000 0000 0000 0000 0000
00000060: 0000 0000 e030 883c d53c 833c 8832 80ba
00000070: 0000 0000 2a09 963b 0000 0000 0e7f 083c
00000080: 0000 0000 3288 83bb e2cd 9abb 0000 0000
00000090: 0000 0000 0000 0000 0d90 173c ab98 88bb
000000a0: 0000 0000 9b5a 46ba 8e1b 01bb 3de0 2e3c
000000b0: 1fd3 1f3c ce52 c93b 0000 0000 4bb8 76bc
000000c0: d2ae 23bb 34f2 8a3b 90c8 c2bb 82a4 b6ba
000000d0: 2b06 b5bb 0000 0000 0000 0000 0000 0000
000000e0: 0270 95ba 0000 0000 8c4e 00bb 37c9 3c3c
000000f0: d2ed 5d3c 4b54 703c 0000 0000 0000 0000
0.0 0.0028618334 0.0 0.0 -0.0021274323 -0.0042945603 0.0040104347 0.0035237863
-0.0038839304 0.0 0.0020183248 0.0 0.0013330664 0.010049945 0.0 0.0
-0.0035810072 0.0109318355 -0.0039997185 0.0 0.0 0.0 0.0 0.0
0.0 0.016624868 0.016020218 -0.0009780684 0.0 0.004578729 0.0 0.008331073
0.0 -0.0040140385 -0.00472425 0.0 0.0 0.0 0.009250653 -0.00416859
0.0 -0.0007566602 -0.0019700262 0.01067358 0.009754925 0.0061439043 0.0 -0.015058587
-0.0024976027 0.0042402986 -0.005944319 -0.0013934525 -0.005524417 0.0 0.0 0.0
-0.0011401179 0.0 -0.0019578068 0.011522583 0.01354547 0.0146685345 0.0 0.0

sequential/dense/MatMul f4 [64, 132]
00000000: c754 173e 634b b7bd 39cb 29be 1788 2bbe
00000010: 63e7 c5bd c8a6 1ebe 7e1a e93d 86d4 9ebd
00000020: 663a 98bd 2d72 fcbd 946a 31be 9138 21be
00000030: f0b9 16bc a793 023e 4fb6 053e 4961 2f3e
00000040: 548a 373d 40c2 44bd 6253 bf3d 6de1 28be
00000050: fe5a d0bd 6b15 103e 106c 09be 26c3 b4bd
00000060: 98b9 a83c 78f9 933d 70c0 f83c 005a aab9
00000070: 8e09 c5bd 5c65 36bd e0ea b8bb 543c 943d
00000080: c047 a03c 2a95 a5bd 76fa 913d 0842 eebc
00000090: f65a 953d 3151 1cbe fa2a aa3d 80ab 02bd
000000a0: 64c9 2dbe f80f 1cbd 37f1 143e 6b59 b5bd
000000b0: 0068 e8ba 3c2c c6bd 930d 183e f0fa fbbd
000000c0: 28be 8cbd 5e87 b63d 8ede 24be 0c83 36bd
000000d0: 42b6 f23d 30cc e1bc 19f4 133e 6289 993d
000000e0: 58e7 833c 1493 983d 4091 3d3b 20c5 2ebc
000000f0: 75b0 143e 8c5b 60bd 305f 203c a06f a93b
00000100: 59d0 033e 6a67 e23d 856c 12be 689f 61bd
00000110: 08a0 9bbd 1a4b 15be 2e14 e33d 8dda 2dbe
00000120: f1d0 30be 382a 6fbd efb6 32be f03b 14bd
00000130: 8609 abbd 804b a2ba 60dd 193d 84f3 00bd
00000140: 1fa4 223e 3af8 853d e6b4 bc3d fef2 e93d
00000150: a33f 143e 3842 f43c ceae d33d b0ab 6c3d
00000160: b3fe 213e 289d 74bd 60f1 853d 1279 e03d
00000170: e927 23be cca2 5a3d 4776 203e 1ba7 2e3e
00000180: a52b 82bd 6038 96bd 8026 cdbb 72dc 5abd
00000190: 80d8 ff3a 6453 23be 56bc ca3d b317 053e
000001a0: 2e29 e03d ed93 b1bd c4a6 0cbe 4230 cc3d
000001b0: 5052 3c3c 8632 f0bd 7cc5 523d 383d f2bc
000001c0: 3273 e83d 6fb4 29be 8293 903d 627f 6cbd
000001d0: ef13 1c3e 6832 6d3d 606e d0bc 6e81 a93d
000001e0: 6d47 163e 40a7 05be 3d25 193e 00ab 1a3a
000001f0: 84c2 25bd 97a6 1dbe 8722 16be 7022 793c
00000200: 703d e0bc 6885 aabd 6ecd 813d 586e cbbc
00000210: b5a7 42bb bea6 9abd 98c5 993d 1aef 8f3d
00000220: bb67 303e 5528 b2bd 4e0c 1b3d 4a80 193e
00000230: 0426 013e d328 7bbd 5f8c 47bd f1d0 513d
00000240: a651 e2bc c93d f83c 68c3 20be 121b b83d
00000250: 0e8e f23d 32fb c33d 26d1 01be 88f5 273e
00000260: d67a febd 38f1 59bc 8581 373d 661f 3bbd
00000270: 9da3 0c3e 2290 153d 56ab 1a3e c94a 133e
00000280: 0787 7ebd 45d0 0a3e b4dc 0a3c 5100 6fbd
00000290: ffbd cc3c 036b dcbd 3252 b3bd 4f75 0f3e
000002a0: 4e89 f4bd 45a6 1fbe 94c1 303e 28cc fabd
000002b0: 0fb7 553c 82fc e73d b300 2e3e e8d7 fcbc
000002c0: 4f48 cfbd 805c d43d e47d 543d ae0d a23d
000002d0: 5598 b43d 0573 d13d 8706 03bd 1abc b4bd
000002e0: 87ae 6e3d 9e2c 04bd 18b8 e8bd 7e42 323d
000002f0: aa41 7fbc f6f5 24bd 1b64 6f3d 5783 8b3d
00000300: 04c3 c93d 33ff 0bbe f7a8 df3d 7e7a 14bc
00000310: 015d 263e 06c3 08be 3240 8ebd 20cc a93c
00000320: fa85 4f3d cbef c03d 83eb 913d be9b 113d
00000330: 0c64 a7bd 0125 01bc 63ef 97bc 19e9 d23c
00000340: cbd7 d7bd 59ce a53d 0fe1 95bc 6786 123e
00000350: 1b0c 00be ca15 d93d 171d e7bd a11b b13d
00000360: 5354 3cbd 487b 423d d5ac eb3d c57a a23c
00000370: 6556 eabd 1f51 17bc c75a e23d f47c a7bd
00000380: 08cc 04be bfba 333c 509a 473d bc17 1cbe
00000390: e761 2bbe b114 b0bc b8d7 803d a74a 92bb
000003a0: 606c 35be 31c4 823d d103 dc3d aa22 e6bd
000003b0: 6210 22be 1538 253e 0242 573e 74e8 24be
000003c0: 48de 0ebe 2805 583d 2d88 a13d cb1b 463b
000003d0: bdf5 b13d b8b8 ee3d 6b27 293e 58b2 6cbb
000003e0: 16f5 333d 4cbd 6abd 9b20 d03b a348 e43b
000003f0: eeb5 4c3d 5ed9 df3d cab9 3bbc 6299 8fbd
0.14778434 -0.08949926 -0.1658143 -0.16751133 -0.09663274 -0.1549331 0.11382006 -0.077553794
-0.074330136 -0.12326465 -0.17325813 -0.15744235 -0.009199604 0.12751637 0.13057826 0.17126955
0.044809654 -0.048036814 0.09342076 -0.16492243 -0.101736054 0.1407067 -0.13420129 -0.08826284
0.02059631 0.07225317 0.030365199 -0.00032491982 -0.09620963 -0.044530258 -0.0056432337 0.07238069
0.019565463 -0.080850914 0.0712785 -0.02908422 0.0729274 -0.15265347 0.083089784 -0.031901836
-0.16971356 -0.038101166 0.14545141 -0.08854946 -0.001773119 -0.09676406 0.14848928 -0.12303722
-0.06872207 0.08912538 -0.16100523 -0.04455857 0.11851169 -0.027563184 0.14448585 0.07496907
0.016101524 0.07449928 0.0028925687 -0.010667115 0.14520438 -0.054774806 0.0097883195 0.0051707774
0.12872447 0.11054881 -0.1429921 -0.055083662 -0.07598883 -0.1457943 0.11087833 -0.16977902
-0.17267205 -0.058389872 -0.17452596 -0.036189973 -0.08351426 -0.001238212 0.037564635 -0.031482235
0.1588292 0.06541486 0.09214191 0.114233 0.144774 0.029816732 0.10336076 0.05778092
0.15819816 -0.05972019 0.06540179 0.10960592 -0.15933193 0.05337791 0.15670119 0.17055933
-0.06355981 -0.073349714 -0.006260693 -0.05343289 0.0019519478 -0.1594978 0.098992035 0.12997322
0.109453544 -0.08670793 -0.13735491 0.09970142 0.011494234 -0.117283866 0.051457867 -0.029570207
0.11350097 -0.16572736 0.07059385 -0.05773867 0.15241979 0.0579094 -0.025443256 0.0827664
0.14675684 -0.13052082 0.14955612 0.0005900115 -0.040468708 -0.1539558 -0.14661609 0.015205964
-0.027373046 -0.083262265 0.06338011 -0.02483289 -0.0029702012 -0.07551335 0.07508391 0.07028027
0.1722707 -0.08699099 0.03785353 0.14990345 0.12612158 -0.06131823 -0.048717853 0.051224653
-0.027626824 0.030302899 -0.15699542 0.08989538 0.11843501 0.09569396 -0.1267744 0.16402256
-0.12425773 -0.01330214 0.044801254 -0.04568424 0.13734289 0.03651441 0.15104422 0.14383997
-0.06214049 0.13556011 0.008475471 -0.05834991 0.024992941 -0.10762598 -0.08755912 0.14009593
-0.11940251 -0.1559077 0.17261344 -0.12245971 0.013044133 0.11327459 0.16992454 -0.03086467
-0.10121214 0.103692055 0.05187787 0.079127654 0.088181175 0.10227016 -0.031988647 -0.0882494
0.05827191 -0.032269113 -0.11363238 0.043520443 -0.01557962 -0.04027363 0.058445077 0.068121605
0.098516494 -0.1367157 0.10920899 -0.009062408 0.16246416 -0.13355646 -0.06945838 0.020727217
0.05066488 0.09420737 0.071249984 0.035548918 -0.08173379 -0.007882358 -0.018546766 0.025745915
-0.10539206 0.08095998 -0.018295793 0.14309083 -0.12504618 0.10599859 -0.11284845 0.08647848
-0.045978855 0.04748085 0.115075745 0.019833932 -0.1144226 -0.009235649 0.11052471 -0.0817813
-0.12968457 0.010969817 0.04873115 -0.15243429 -0.16736566 -0.021494241 0.06291145 -0.0044644657
-0.17717123 0.06385077 0.107429154 -0.112370804 -0.15826562 0.16134675 0.21021274 -0.16104299
-0.13951981 0.052739292 0.078873016 0.0030228968 0.08689449 0.11656326 0.16518943 -0.0036117043
0.043934904 -0.057309434 0.006351543 0.006966667 0.04997819 0.109301314 -0.01145787 -0.07011677

sequential/dense_1/MatMul f4 [32, 64]
00000000: 68ab a5bd 74c9 db3d 8cfe 573e 0473 61be
00000010: 78dd d43d 006b c6bc e53f c9bc 6de7 9f3d
00000020: 8bda 78be 8007 1c3d fcd0 15be e0dd f73d
00000030: 5cba 17be 4c09 28be 687a 523e c08a 653e
00000040: c64a 35be 764b 41bd 9eac a3bd f00e 00bd
00000050: d041 0d3d 8014 27be 00b2 38bd 3040 73be
00000060: 14c7 06be c920 5cbe 1ec9 b53c 3e57 113e
00000070: 40e5 1b3d 5208 22be c002 f9bc 957c 9a3c
00000080: 00f0 3ebc 09e7 cdbd 404e 153c 9815 d4bd
00000090: ac4f 6cbe e0b2 f73d c049 cd3d 6e28 2a3e
000000a0: 9c1a 293e 17bf bc3c 7267 7d3e 7723 0c3e
000000b0: 9445 ea3d 745a cb3d cc39 77be dfce 2bbe
000000c0: 800b 053c dc14 f33d 4886 4abe b896 b7bd
000000d0: ff96 47be 4065 2bbd 80a9 2c3e a098 1a3e
000000e0: 8078 a7bc 301d d8bd 20fe cdbd bd6f 063e
000000f0: 1669 723e 0593 673d 6827 083e 6871 6c3e
00000100: d065 35be 0071 fd3d 80a7 663d c0dd 08be
00000110: e0a8 d4bc 002b 633e f00c 2cbe 082d c53d
00000120: 4c11 3bbe 20c5 6fbe 9089 48be c42c 013e
00000130: b850 693e 804f bcbd d0eb 6bbd b029 e93d
00000140: 94ff 77be 4c03 443e c077 a9bd 0810 f93d
00000150: 1ce3 0d3e a086 a8bc 90c8 5e3d 106c 793e
00000160: c48a 7d3e 40ec 1f3c 7497 303e 9873 5fbe
00000170: 00e5 c1bb 2876 fc3d 0052 a63d a0c4 debc
00000180: c4fd 6c3e 904b 533e 203a ad3c 68f6 453e
00000190: 1cec 5cbe 0078 cdbd 8055 13bc 1809 9f3d
000001a0: 70a1 81bd 283b b8bd 28c9 e23d 489f 40be
000001b0: 60f6 afbc d45e 32be 5469 31be 0009 95bb
000001c0: 5494 47be 4047 35bd c09c 383c 4080 df3c
000001d0: dc96 66be f0f3 77be a015 d9bd b0eb 023d
000001e0: 7899 d73d 30a7 843d e01b b63d e475 663e
000001f0: 5cb5 72be 70a1 e7bd c028 843d 8059 633e
00000200: 60b3 10be 21a5 75be b85f c7bd 8023 40bd
00000210: 6031 383e b091 1fbe 2d7c 84be 89e8 74bd
00000220: e64f f8bd f08f 793e 8898 1bbd 805b debb
00000230: 132f 4b3d a9a9 46be b444 433e 0812 053e
00000240: f493 173e 4f1c f2bd 55f1 75be 54fc 743e
00000250: a0a0 f83d ecc7 16be f459 523e 00ec 063a
00000260: c05a c33d 5334 0ebe c6bc 003d f55b 963d
00000270: 4073 e93d 0777 84bc 2ca9 673e 0b03 dcbd
00000280: 0097 1bbc b5c9 403e 4c85 4d3e 503e 7f3e
00000290: bc9b 0d3e 40f0 1fbd 20bd b23c 3693 c7bc
000002a0: 8003 3dbc e719 0ebd 69cd 043e f08d 963d
000002b0: 9a5c e23c b2ee dcbd 341e 7cbe 82be 5f3a
000002c0: 7813 673e 86a1 c5bc 76d9 b73c f0d4 60be
000002d0: 2595 e73d 84aa 0e3e 505b 0f3e 58d8 b73d
000002e0: 9cad 27be f08c 1fbe 3a20 a53c b4ef 61be
000002f0: b9ab 263e a079 50bd e854 053e 8ca1 7abe
00000300: f0df 0ebe 1100 2fbd a07f b83c 18bf d2bd
00000310: c521 533e 9e9d 67bd f54c 35be c46e c03d
00000320: ad59 743e d88a 69be 6d20 19bd e8fc 42be
00000330: b8eb 80be 2ac5 d9bd c0ce 41bc 70f1 fbbd
00000340: 40b4 003e f2bb 4cbc 09a5 303e 4832 9abd
00000350: 8886 48be 80f2 b83b 00a1 6fbe a0b4 3e3d
00000360: 1404 4ebe ae5d 3abe cde4 5ebe 7386 883e
00000370: c02f 353d 6e57 603d 0057 c2bb 91b4 3c3e
00000380: 802c ffbd 2cde 683d 7472 d63d e0f9 6fbd
00000390: f0c5 d4bd 345b 2f3e fc49 e6bd 645a 2f3d
000003a0: c010 76bd a50c 863e cb0c 09bd ca9f 4f3e
000003b0: cdce 6ebe 621f 77bd 2081 97bd 2cb3 0cbe
000003c0: ecfa 703e 181f edbc baa7 5bbe c3a3 4fbc
000003d0: 98c9 8c3e 280a ab3d 8018 14bc 3c2a 42be
000003e0: 2a3e 2b3e 6090 b9bd 3def 0d3d c0f5 e13d
000003f0: 3ac0 873d f4ab 6abe 1cbe 313e c040 b13c
-0.08089334 0.107317835 0.21093196 -0.22016531 0.10393804 -0.024220943 -0.0245666 0.07807813
-0.24302118 0.03809309 -0.14630502 0.12102866 -0.14817184 -0.16409796 0.20554507 0.2241621
-0.17704305 -0.047191106 -0.079919085 -0.031264246 0.03448659 -0.16316414 -0.04509163 -0.23754954
-0.1316188 -0.21496882 0.022190627 0.14193437 0.038060427 -0.15823486 -0.03039682 0.018858233
-0.0116539 -0.10053832 0.009112895 -0.10355681 -0.23077267 0.120946646 0.10023832 0.16616985
0.16514057 0.023040337 0.24746493 0.13685404 0.11439052 0.09929362 -0.24143142 -0.16778134
0.008120418 0.11869213 -0.19777787 -0.08964294 -0.19491194 -0.041844606 0.16861534 0.15097284
-0.020443201 -0.10552442 -0.10058236 0.13128562 0.236729 0.056536693 0.13296282 0.23090136
-0.1771462 0.12375069 0.056312084 -0.13365841 -0.025959432 0.22184372 -0.1680181 0.0962773
-0.18268317 -0.23415041 -0.19583726 0.12614733 0.22784698 -0.09194851 -0.057597935 0.113849044
-0.24218589 0.19141883 -0.082747936 0.12161261 0.13856167 -0.020572007 0.05439049 0.24357629
0.24759966 0.009760916 0.17245275 -0.2182144 -0.0059171915 0.12327224 0.08121109 -0.027193367
0.23143679 0.20634294 0.02114588 0.19332278 -0.21574444 -0.10032654 -0.008992553 0.07765406
-0.0632962 -0.08995658 0.11073524 -0.18810761 -0.021479785 -0.17418987 -0.17325336 -0.004548192
-0.19490176 -0.044257402 0.011267841 0.027282834 -0.22518486 -0.24214149 -0.10599828 0.03196305
0.10527319 0.06477201 0.088920355 0.22505909 -0.23701996 -0.11310089 0.06453085 0.2220211
-0.14130926 -0.23988773 -0.09735054 -0.046908855 0.17987585 -0.15582919 -0.2587599 -0.059792075
-0.121246144 0.24371314 -0.037987262 -0.00678581 0.04960544 -0.19400658 0.19069177 0.1299516
0.14802533 -0.11821806 -0.24017842 0.2392438 0.12140012 -0.14724702 0.20542127 0.0005146861
0.095387936 -0.13887148 0.03143003 0.07341758 0.11398935 -0.016170038 0.22623128 -0.10742768
-0.00949645 0.18826945 0.2007038 0.24926114 0.13828939 -0.03904748 0.021818697 -0.024362188
-0.011536479 -0.03469267 0.12968983 0.07351291 0.027632046 -0.10787715 -0.24620897 0.0008535163
0.2256602 -0.024124872 0.02244256 -0.21956229 0.11307744 0.13932234 0.13999677 0.08976811
-0.1637482 -0.15581107 0.020156968 -0.22064096 0.16276444 -0.05089724 0.1302067 -0.24475688
-0.13952613 -0.042724673 0.022521794 -0.102903545 0.20618351 -0.0565468 -0.17705138 0.09396127
0.23862334 -0.22806871 -0.03738444 -0.19041789 -0.2517984 -0.10633309 -0.011829078 -0.1230191
0.1256876 -0.0124959815 0.17250456 -0.07529122 -0.1958257 0.0056441426 -0.2340126 0.046558976
-0.20118743 -0.18199798 -0.21766968 0.26665077 0.04423499 0.05477088 -0.0059307814 0.18428256
-0.124596596 0.056852505 0.10471049 -0.05858791 -0.10389316 0.17124635 -0.1124458 0.042810813
-0.060074568 0.26181522 -0.033459466 0.20275798 -0.23321076 -0.060332663 -0.073976755 -0.13740224
0.23533219 -0.02894549 -0.21450701 -0.012673321 0.27497554 0.083515465 -0.009039044 -0.18961424
0.16722932 -0.090607405 0.034651984 0.11033201 0.06628461 -0.22917157 0.17357677 0.02163732

sequential/dense_2/MatMul f4 [2, 32]
00000000: 7e35 fa3d 304c 4dbe 1709 fa3d b552 c73e
00000010: 03da 533e 0ce6 df3d 20ee 42be e0e4 19be
00000020: e38f a73d adaf e93e 2a0a 783e d3ee 17bc
00000030: 62ed 55bd ccad c6be 3343 923e c74c edbd
00000040: 468a 11be 03c7 803e 2088 d9bd 0f08 cf3e
00000050: 6cb1 ee3d 0632 c5be f9f0 a6be a5cf a1be
00000060: 414c b13e 0639 d73d 76a1 76bd e174 b93e
00000070: 6623 8fbe e0fe 02bd 8678 abbe 244a dcbe
00000080: 56cb efbd c816 93be b48d b63e 71fa a6be
00000090: d745 d23e 84df a5bd 9948 9e3e ea67 653e
000000a0: 32ba 0cbe 82e9 cabe f66c 0d3e f567 c9bd
000000b0: 397c e03e a164 693e 305a 06be f4cb d3be
000000c0: f094 003d 4794 8e3e 7934 03bd cc8b c2be
000000d0: e092 69bd 80b5 193e b98c 343d 348c c73d
000000e0: c8c6 5bbe 74b1 353e 1c90 a9be d0d6 2abd
000000f0: a32b b6be f8e4 80be ab2d 89be c8c1 843e
0.12217234 -0.20048594 0.12208765 0.38930288 0.20688634 0.1093255 -0.1903615 -0.15028715
0.08181741 0.45641842 0.24222627 -0.009273249 -0.05222834 -0.38804471 0.28566894 -0.1158691
-0.14212903 0.25151834 -0.10621667 0.40435836 0.11654934 -0.38514727 -0.32605723 -0.31603733
0.3462849 0.10508923 -0.060212575 0.36221984 -0.27956694 -0.03198135 -0.3349039 -0.43025315
-0.11708705 -0.28728318 0.35654986 -0.32612947 0.4106891 -0.08099273 0.30914763 0.22402921
-0.13742903 -0.39631277 0.13811097 -0.09834281 0.43844774 0.22792293 -0.13120341 -0.4136654
0.031392038 0.27847502 -0.032032464 -0.37997282 -0.057024837 0.15010643 0.044079516 0.097435385
-0.21462548 0.17743474 -0.3311776 -0.041708767 -0.35580167 -0.2517469 -0.26792654 0.25929093
